…
          <div class=3D"output-iframe-container">
            <div class=3D"output-iframe-sizer"> <div><div><colab-static-out=
put-renderer role=3D"group" tabindex=3D"0"><div><div class=3D"stream output=
_text"><pre>Model: "sequential"
_________________________________________________________________
 Layer (type)                Output Shape              Param #  =20
=3D=3D=3D=3D=3D=3D=3D=3D=3D=3D=3D=3D=3D=3D=3D=3D=3D=3D=3D=3D=3D=3D=3D=3D=3D=
=3D=3D=3D=3D=3D=3D=3D=3D=3D=3D=3D=3D=3D=3D=3D=3D=3D=3D=3D=3D=3D=3D=3D=3D=3D=
=3D=3D=3D=3D=3D=3D=3D=3D=3D=3D=3D=3D=3D=3D=3D
 conv2d (Conv2D)             (None, 62, 62, 32)        896      =20
                                                                =20
 max_pooling2d (MaxPooling2  (None, 31, 31, 32)        0        =20
 D)                                                             =20
                                                                =20
 conv2d_1 (Conv2D)           (None, 29, 29, 64)        18496    =20
                                                                =20
 max_pooling2d_1 (MaxPoolin  (None, 14, 14, 64)        0        =20
 g2D)                                                           =20
                                                                =20
 flatten (Flatten)           (None, 12544)             0        =20
                                                                =20
 dense (Dense)               (None, 128)               1605760  =20
                                                                =20
 dense_1 (Dense)             (None, 64)                8256     =20
                                                                =20
 dense_2 (Dense)             (None, 10)                650      =20
                                                                =20
=3D=3D=3D=3D=3D=3D=3D=3D=3D=3D=3D=3D=3D=3D=3D=3D=3D=3D=3D=3D=3D=3D=3D=3D=3D=
=3D=3D=3D=3D=3D=3D=3D=3D=3D=3D=3D=3D=3D=3D=3D=3D=3D=3D=3D=3D=3D=3D=3D=3D=3D=
=3D=3D=3D=3D=3D=3D=3D=3D=3D=3D=3D=3D=3D=3D=3D
Total params: 1634058 (6.23 MB)
Trainable params: 1634058 (6.23 MB)
Non-trainable params: 0 (0.00 Byte)
_________________________________________________________________
…
